…
         [ 0.0598,  0.0092, -0.0193,  ...,  0.0186,  0.0043, -0.0027],
         [-0.0402,  0.0545, -0.0158,  ..., -0.0117,  0.0013,  0.0126],
         [ 0.0122, -0.0339,  0.0028,  ...,  0.0600, -0.0131,  0.0428]]],
       requires_grad=True)), ('dist_token', Parameter containing:
tensor([[[… requires_grad=True))])
_buffers=OrderedDict()
_non_persistent_buffers_set=set()
_backward_hooks=OrderedDict()
_is_full_backward_hook=None
_forward_hooks=OrderedDict()
_forward_pre_hooks=OrderedDict()
_state_dict_hooks=OrderedDict()
_load_state_dict_pre_hooks=OrderedDict()
_modules=OrderedDict([('patch_embed', PatchEmbed(
  (proj): Conv2d(1, 768, kernel_size=(16, 16), stride=(10, 10))
)), ('pos_drop', Dropout(p=0.0, inplace=False)), ('blocks', ModuleList(
  (0): Block(
    (norm1): LayerNorm((768,), eps=1e-06, elementwise_affine=True)
    (attn): Attention(
      (qkv): Linear(in_features=768, out_features=2304, bias=True)
      (attn_drop): Dropout(p=0.0, inplace=False)
      (proj): Linear(in_features=768, out_features=768, bias=True)
      (proj_drop): Dropout(p=0.0, inplace=False)
    )
    (drop_path): Identity()
    (norm2): LayerNorm((768,), eps=1e-06, elementwise_affine=True)
    (mlp): Mlp(
      (fc1): Linear(in_features=768, out_features=3072, bias=True)
      (act): GELU()
      (fc2): Linear(in_features=3072, out_features=768, bias=True)
      (drop): Dropout(p=0.0, inplace=False)
    )
  )
  (1): Block(
    (norm1): LayerNorm((768,), eps=1e-06, elementwise_affine=True)
    (attn): Attention(
      (qkv): Linear(in_features=768, out_features=2304, bias=True)
      (attn_drop): Dropout(p=0.0, inplace=False)
      (proj): Linear(in_features=768, out_features=768, bias=True)
      (proj_drop): Dropout(p=0.0, inplace=False)
    )
    (drop_path): Identity()
    (norm2): LayerNorm((768,), eps=1e-06, elementwise_affine=True)
    (mlp): Mlp(
      (fc1): Linear(in_features=768, out_features=3072, bias=True)
      (act): GELU()
      (fc2): Linear(in_features=3072, out_features=768, bias=True)
      (drop): Dropout(p=0.0, inplace=False)
    )
  )
  (2): Block(
    (norm1): LayerNorm((768,), eps=1e-06, elementwise_affine=True)
    (attn): Attention(
      (qkv): Linear(in_features=768, out_features=2304, bias=True)
      (attn_drop): Dropout(p=0.0, inplace=False)
      (proj): Linear(in_features=768, out_features=768, bias=True)
      (proj_drop): Dropout(p=0.0, inplace=False)
    )
    (drop_path): Identity()
    (norm2): LayerNorm((768,), eps=1e-06, elementwise_affine=True)
    (mlp): Mlp(
      (fc1): Linear(in_features=768, out_features=3072, bias=True)
      (act): GELU()
      (fc2): Linear(in_features=3072, out_features=768, bias=True)
      (drop): Dropout(p=0.0, inplace=False)
    )
  )
  (3): Block(
    (norm1): LayerNorm((768,), eps=1e-06, elementwise_affine=True)
    (attn): Attention(
      (qkv): Linear(in_features=768, out_features=2304, bias=True)
      (attn_drop): Dropout(p=0.0, inplace=False)
      (proj): Linear(in_features=768, out_features=768, bias=True)
      (proj_drop): Dropout(p=0.0, inplace=False)
    )
    (drop_path): Identity()
    (norm2): LayerNorm((768,), eps=1e-06, elementwise_affine=True)
    (mlp): Mlp(
      (fc1): Linear(in_features=768, out_features=3072, bias=True)
      (act): GELU()
      (fc2): Linear(in_features=3072, out_features=768, bias=True)
      (drop): Dropout(p=0.0, inplace=False)
    )
  )
  (4): Block(
    (norm1): LayerNorm((768,), eps=1e-06, elementwise_affine=True)
    (attn): Attention(
      (qkv): Linear(in_features=768, out_features=2304, bias=True)
      (attn_drop): Dropout(p=0.0, inplace=False)
      (proj): Linear(in_features=768, out_features=768, bias=True)
      (proj_drop): Dropout(p=0.0, inplace=False)
    )
    (drop_path): Identity()
    (norm2): LayerNorm((768,), eps=1e-06, elementwise_affine=True)
    (mlp): Mlp(
      (fc1): Linear(in_features=768, out_features=3072, bias=True)
      (act): GELU()
      (fc2): Linear(in_features=3072, out_features=768, bias=True)
      (drop): Dropout(p=0.0, inplace=False)
    )
  )
  (5): Block(
    (norm1): LayerNorm((768,), eps=1e-06, elementwise_affine=True)
    (attn): Attention(
      (qkv): Linear(in_features=768, out_features=2304, bias=True)
      (attn_drop): Dropout(p=0.0, inplace=False)
      (proj): Linear(in_features=768, out_features=768, bias=True)
      (proj_drop): Dropout(p=0.0, inplace=False)
    )
    (drop_path): Identity()
    (norm2): LayerNorm((768,), eps=1e-06, elementwise_affine=True)
    (mlp): Mlp(
      (fc1): Linear(in_features=768, out_features=3072, bias=True)
      (act): GELU()
      (fc2): Linear(in_features=3072, out_features=768, bias=True)
      (drop): Dropout(p=0.0, inplace=False)
    )
  )
  (6): Block(
    (norm1): LayerNorm((768,), eps=1e-06, elementwise_affine=True)
    (attn): Attention(
      (qkv): Linear(in_features=768, out_features=2304, bias=True)
      (attn_drop): Dropout(p=0.0, inplace=False)
      (proj): Linear(in_features=768, out_features=768, bias=True)
      (proj_drop): Dropout(p=0.0, inplace=False)
    )
    (drop_path): Identity()
    (norm2): LayerNorm((768,), eps=1e-06, elementwise_affine=True)
    (mlp): Mlp(
      (fc1): Linear(in_features=768, out_features=3072, bias=True)
      (act): GELU()
      (fc2): Linear(in_features=3072, out_features=768, bias=True)
      (drop): Dropout(p=0.0, inplace=False)
    )
  )
  (7): Block(
    (norm1): LayerNorm((768,), eps=1e-06, elementwise_affine=True)
    (attn): Attention(
      (qkv): Linear(in_features=768, out_features=2304, bias=True)
      (attn_drop): Dropout(p=0.0, inplace=False)
      (proj): Linear(in_features=768, out_features=768, bias=True)
      (proj_drop): Dropout(p=0.0, inplace=False)
    )
    (drop_path): Identity()
    (norm2): LayerNorm((768,), eps=1e-06, elementwise_affine=True)
    (mlp): Mlp(
      (fc1): Linear(in_features=768, out_features=3072, bias=True)
      (act): GELU()
      (fc2): Linear(in_features=3072, out_features=768, bias=True)
      (drop): Dropout(p=0.0, inplace=False)
    )
  )
  (8): Block(
    (norm1): LayerNorm((768,), eps=1e-06, elementwise_affine=True)
    (attn): Attention(
      (qkv): Linear(in_features=768, out_features=2304, bias=True)
      (attn_drop): Dropout(p=0.0, inplace=False)
      (proj): Linear(in_features=768, out_features=768, bias=True)
      (proj_drop): Dropout(p=0.0, inplace=False)
    )
    (drop_path): Identity()
    (norm2): LayerNorm((768,), eps=1e-06, elementwise_affine=True)
    (mlp): Mlp(
      (fc1): Linear(in_features=768, out_features=3072, bias=True)
      (act): GELU()
      (fc2): Linear(in_features=3072, out_features=768, bias=True)
      (drop): Dropout(p=0.0, inplace=False)
    )
  )
  (9): Block(
    (norm1): LayerNorm((768,), eps=1e-06, elementwise_affine=True)
    (attn): Attention(
      (qkv): Linear(in_features=768, out_features=2304, bias=True)
      (attn_drop): Dropout(p=0.0, inplace=False)
      (proj): Linear(in_features=768, out_features=768, bias=True)
      (proj_drop): Dropout(p=0.0, inplace=False)
    )
    (drop_path): Identity()
    (norm2): LayerNorm((768,), eps=1e-06, elementwise_affine=True)
    (mlp): Mlp(
      (fc1): Linear(in_features=768, out_features=3072, bias=True)
      (act): GELU()
      (fc2): Linear(in_features=3072, out_features=768, bias=True)
      (drop): Dropout(p=0.0, inplace=False)
    )
  )
  (10): Block(
    (norm1): LayerNorm((768,), eps=1e-06, elementwise_affine=True)
    (attn): Attention(
      (qkv): Linear(in_features=768, out_features=2304, bias=True)
      (attn_drop): Dropout(p=0.0, inplace=False)
      (proj): Linear(in_features=768, out_features=768, bias=True)
      (proj_drop): Dropout(p=0.0, inplace=False)
    )
    (drop_path): Identity()
    (norm2): LayerNorm((768,), eps=1e-06, elementwise_affine=True)
    (mlp): Mlp(
      (fc1): Linear(in_features=768, out_features=3072, bias=True)
      (act): GELU()
      (fc2): Linear(in_features=3072, out_features=768, bias=True)
      (drop): Dropout(p=0.0, inplace=False)
    )
  )
  (11): Block(
    (norm1): LayerNorm((768,), eps=1e-06, elementwise_affine=True)
    (attn): Attention(
      (qkv): Linear(in_features=768, out_features=2304, bias=True)
      (attn_drop): Dropout(p=0.0, inplace=False)
      (proj): Linear(in_features=768, out_features=768, bias=True)
      (proj_drop): Dropout(p=0.0, inplace=False)
    )
    (drop_path): Identity()
    (norm2): LayerNorm((768,), eps=1e-06, elementwise_affine=True)
    (mlp): Mlp(
      (fc1): Linear(in_features=768, out_features=3072, bias=True)
      (act): GELU()
      (fc2): Linear(in_features=3072, out_features=768, bias=True)
      (drop): Dropout(p=0.0, inplace=False)
    )
  )
)), ('norm', LayerNorm((768,), eps=1e-06, elementwise_affine=True)), ('pre_logits', Identity()), ('head', Linear(in_features=768, out_features=1000, bias=True)), ('head_dist', Linear(in_features=768, out_features=1000, bias=True))])
num_classes=1000
num_features=768
embed_dim=768
default_cfg={'url'
…
